…
0                  Mix  White    True        304      2  2014  
1                  Mix      0    True        304     10  2013  
2                  Mix  White    True        308      1  2015  
3                  Mix      0   False        100      7  2014  
4     Miniature Poodle      0   False        308     11  2013  
5  Chihuahua Shorthair    Tan    True       1000      4  2014  
6                  Mix      0    True        100      3  2015  
7                  Mix      0   False        100      4  2015  
8                  Mix  White    True       1001      2  2014  
9                    0      0   False        304      5  2014  
table.shape:  (26729, 10)  ---> NewTable.shape:  (26729, 551) ,  len(dictionary):  10
table.shape:  (1728, 10)  ---> NewTable.shape:  (1728, 551) ,  len(dictionary):  10
____________________________________________________________________________________________________
Layer (type)                     Output Shape          Param #     Connected to                     
====================================================================================================
dense_1 (Dense)                  (None, 2048)          1130496     dense_input_1[0][0]              
____________________________________________________________________________________________________
activation_1 (Activation)        (None, 2048)          0           dense_1[0][0]                    
____________________________________________________________________________________________________
dropout_1 (Dropout)              (None, 2048)          0           activation_1[0][0]               
____________________________________________________________________________________________________
dense_2 (Dense)                  (None, 2048)          4196352     dropout_1[0][0]                  
____________________________________________________________________________________________________
activation_2 (Activation)        (None, 2048)          0           dense_2[0][0]                    
____________________________________________________________________________________________________
dropout_2 (Dropout)              (None, 2048)          0           activation_2[0][0]               
____________________________________________________________________________________________________
dense_3 (Dense)                  (None, 2048)          4196352     dropout_2[0][0]                  
____________________________________________________________________________________________________
activation_3 (Activation)        (None, 2048)          0           dense_3[0][0]                    
____________________________________________________________________________________________________
dropout_3 (Dropout)              (None, 2048)          0           activation_3[0][0]               
____________________________________________________________________________________________________
dense_4 (Dense)                  (None, 5)             10245       dropout_3[0][0]                  
____________________________________________________________________________________________________
activation_4 (Activation)        (None, 5)             0           dense_4[0][0]                    
====================================================================================================
Total params: 9533445
____________________________________________________________________________________________________
----start fit-----
Train on 21383 samples, validate on 5346 samples
Epoch 1/20
  128/21383 [..............................] - ETA:
…
